Preprocessed abstracts.
Found 10441 unique tokens.
Shape of abstract tensor: (2346, 94)
Shape of links tensor: (2346,)
10442
_________________________________________________________________
Layer (type)                 Output Shape              Param #   
=================================================================
embedding_1 (Embedding)      (None, 94, 94)            981548    
_________________________________________________________________
flatten_1 (Flatten)          (None, 8836)              0         
_________________________________________________________________
dense_1 (Dense)              (None, 512)               4524544   
_________________________________________________________________
dropout_1 (Dropout)          (None, 512)               0         
_________________________________________________________________
dense_2 (Dense)              (None, 256)               131328    
_________________________________________________________________
dropout_2 (Dropout)          (None, 256)               0         
_________________________________________________________________
dense_3 (Dense)              (None, 128)               32896     
_________________________________________________________________
dropout_3 (Dropout)          (None, 128)               0         
_________________________________________________________________
dense_4 (Dense)              (None, 64)                8256      
_________________________________________________________________
dropout_4 (Dropout)          (None, 64)                0         
_________________________________________________________________
dense_5 (Dense)              (None, 1)                 65        
=================================================================
Total params: 5,678,637
Trainable params: 5,678,637
Non-trainable params: 0
_________________________________________________________________
None
Train on 1642 samples, validate on 704 samples
Epoch 1/50
 - 9s - loss: 1239.8538 - mean_squared_error: 1239.8538 - mean_absolute_error: 28.5273 - val_loss: 1750.6732 - val_mean_squared_error: 1750.6732 - val_mean_absolute_error: 36.7944
…
